{"modelTopology":{"class_name":"Model","config":{"name":"model1","layers":[{"name":"state","class_name":"InputLayer","config":{"batch_input_shape":[null,15],"dtype":"float32","sparse":false,"name":"state"},"inbound_nodes":[]},{"name":"dense_Dense1","class_name":"Dense","config":{"units":8,"activation":"sigmoid","use_bias":true,"kernel_initializer":{"class_name":"VarianceScaling","config":{"scale":1,"mode":"fan_avg","distribution":"normal","seed":null}},"bias_initializer":{"class_name":"Zeros","config":{}},"kernel_regularizer":null,"bias_regularizer":null,"activity_regularizer":null,"kernel_constraint":null,"bias_constraint":null,"name":"dense_Dense1","trainable":true},"inbound_nodes":[[["state",0,0,{}]]]},{"name":"action","class_name":"InputLayer","config":{"batch_input_shape":[null,1],"dtype":"float32","sparse":false,"name":"action"},"inbound_nodes":[]},{"name":"concatenate_Concatenate1","class_name":"Concatenate","config":{"axis":-1,"name":"concatenate_Concatenate1","trainable":true},"inbound_nodes":[[["dense_Dense1",0,0,{}],["action",0,0,{}]]]},{"name":"dense_Dense2","class_name":"Dense","config":{"units":5,"activation":"sigmoid","use_bias":true,"kernel_initializer":{"class_name":"VarianceScaling","config":{"scale":1,"mode":"fan_avg","distribution":"normal","seed":null}},"bias_initializer":{"class_name":"Zeros","config":{}},"kernel_regularizer":null,"bias_regularizer":null,"activity_regularizer":null,"kernel_constraint":null,"bias_constraint":null,"name":"dense_Dense2","trainable":true},"inbound_nodes":[[["concatenate_Concatenate1",0,0,{}]]]},{"name":"dense_Dense3","class_name":"Dense","config":{"units":1,"activation":"linear","use_bias":true,"kernel_initializer":{"class_name":"VarianceScaling","config":{"scale":1,"mode":"fan_avg","distribution":"normal","seed":null}},"bias_initializer":{"class_name":"Zeros","config":{}},"kernel_regularizer":null,"bias_regularizer":null,"activity_regularizer":null,"kernel_constraint":null,"bias_constraint":null,"name":"dense_Dense3","trainable":true},"inbound_nodes":[[["dense_Dense2",0,0,{}]]]}],"input_layers":[["state",0,0],["action",0,0]],"output_layers":[["dense_Dense3",0,0]]},"keras_version":"tfjs-layers 4.8.0","backend":"tensor_flow.js"},"weightsManifest":[{"paths":["weights.bin"],"weights":[{"name":"dense_Dense1/kernel","shape":[15,8],"dtype":"float32"},{"name":"dense_Dense1/bias","shape":[8],"dtype":"float32"},{"name":"dense_Dense2/kernel","shape":[9,5],"dtype":"float32"},{"name":"dense_Dense2/bias","shape":[5],"dtype":"float32"},{"name":"dense_Dense3/kernel","shape":[5,1],"dtype":"float32"},{"name":"dense_Dense3/bias","shape":[1],"dtype":"float32"}]}],"format":"layers-model","generatedBy":"TensorFlow.js tfjs-layers v4.8.0","convertedBy":null}